model/autoencoder.pth (torch, 190265 bytes, 11 tensors)

encoder.0.weight f4 [16, 1, 3, 3]
0	0xbdec5178	-0.115389764
1	0x3cb3d1e0	0.021950662
2	0xbc683fc0	-0.014175355
3	0xbe24d91e	-0.16098449
4	0xbe923194	-0.2855345
5	0xbe8ad25c	-0.27113616
6	0xbe5952f0	-0.21223044
7	0x3d6299c0	0.05532241
8	0xbcbde238	-0.023179159
9	0x3e63bc64	0.22239834
10	0xbeba2c5f	-0.36361977
11	0x3dbb1925	0.09135655
12	0xbeb0fd6d	-0.3456835
13	0xbc3c0279	-0.011475199
14	0xbdac139f	-0.0840218
15	0xbe994a92	-0.29939705
16	0xbe8e4f88	-0.27795053
17	0xbe2408af	-0.16018938
18	0x3e1b0476	0.1513842
19	0xbe1f71b6	-0.15570721
20	0x3e0fbb94	0.14036399
21	0x3e2d23c7	0.16908179
22	0x3df14bbe	0.11782025
23	0xbd6076d5	-0.054800827
24	0xbe0a7ced	-0.13524218
25	0xbe245c81	-0.16050912
26	0xbe80f2d0	-0.2518525
27	0x3e2a86b4	0.16652948
28	0xbd68c8a8	-0.056831986
29	0xbe15c980	-0.14627647
30	0x3e06ef41	0.13177206
31	0x3e93004a	0.28711158
32	0xbeb03e28	-0.3442242
33	0xbd7eb5c1	-0.062185053
34	0x3e47dcd1	0.19517829
35	0xbe1ef312	-0.15522411
36	0x3cea3412	0.028589282
37	0xbd4d2b6d	-0.050090242
38	0xbe105480	-0.14094734
39	0xbe272265	-0.16321714
40	0xbea75950	-0.32685328
41	0xbe8d9158	-0.2764995
42	0x3e07acec	0.13249558
43	0xbe69587f	-0.22787665
44	0xbccccf7c	-0.02500128
45	0xbdbd918b	-0.09256276
46	0x3e01ea4d	0.12687035
47	0x3df80830	0.12110937
48	0xbe8b03df	-0.2715139
49	0x3e9578c6	0.29193705
50	0xbdcef5cd	-0.101054765
51	0xbe855788	-0.26043344
52	0x3dccfed1	0.1000954
53	0xbe723d22	-0.23656133
54	0x3c631d9b	0.013862039
55	0x3e9b1aaf	0.30293795
56	0x3d80f6b6	0.062970564
57	0xbe305685	-0.17220505
58	0xbe8b7820	-0.27240086
59	0x3e6bafc1	0.23016264
60	0x3c258556	0.010102591
61	0xbc9cd5b1	-0.019144865
62	0xbdfa9b0d	-0.12236605
63	0xbe655a5b	-0.22397749
64	0x3e88a409	0.2668765
65	0xbe2de493	-0.16981725
66	0xbc0ae427	-0.008477247
67	0xbe8f77d2	-0.28021103
68	0xbd69af49	-0.05705193
69	0xbd95bc97	-0.07311361
70	0xbd6c13ba	-0.057636
71	0x3e090d02	0.13383868
72	0x3de12c41	0.10994769
73	0xbda8322f	-0.08212697
74	0xbe3dc8e2	-0.18533662
75	0xbd804fd2	-0.062652245
76	0x3e929d53	0.28635654
77	0x3e8a3dde	0.27000326
78	0x3e0dcd44	0.13847834
79	0xbe928f1b	-0.28624806
80	0x3df57e10	0.11986935
81	0xbe36970f	-0.17831062
82	0x3e86c9de	0.26325887
83	0x3e01451e	0.12624022
84	0xbe8e1e53	-0.2775751
85	0x3d8e8e1d	0.069607
86	0xbe679db8	-0.22618759
87	0x3e3b94a2	0.18318418
88	0x3dd4ce77	0.103909425
89	0xbe19132a	-0.14948717
90	0x3ea1b3a1	0.31582358
91	0xbe44951b	-0.19197504
92	0xbe911f78	-0.2834432
93	0x3e7ef722	0.24898961
94	0x3da775ea	0.08176787
95	0xbbbaf44d	-0.0057053925
96	0x3e380a7e	0.17972752
97	0xbe412ab5	-0.18863948
98	0x3d92a819	0.07160968
99	0xbda9eee0	-0.08297515
100	0xbe3bc094	-0.18335181
101	0xbe91c40c	-0.28469884
102	0xbd456698	-0.048193544
103	0x3e3c041e	0.18360946
104	0xbe64687e	-0.22305486
105	0xbdfebdf8	-0.124385774
106	0xbe98642e	-0.2976393
107	0xbdad625c	-0.08466026
108	0x3e4a524d	0.19757958
109	0x3e98290c	0.29718816
110	0xbdf09be1	-0.117484815
111	0xbded4991	-0.11586297
112	0x3ea3fe34	0.3202988
113	0x3ea6dcf3	0.32590446
114	0x3e860b21	0.26180366
115	0x3e9f7123	0.31141004
116	0x3e803dec	0.25047243
117	0xbcd1da51	-0.025616797
118	0xbe2e59c7	-0.17026435
119	0x3e81ad61	0.2532759
120	0x3e8c6580	0.27421188
121	0x3dccf9e2	0.10008599
122	0xbdb53257	-0.08847492
123	0x3ead73a2	0.33877283
124	0x3e59a20a	0.21253219
125	0x3d8de3fb	0.069282494
126	0xbe0cecfe	-0.1376228
127	0x3d7fa2ab	0.06241099
128	0x3d8b0f67	0.06790047
129	0x3c89c6df	0.016818462
130	0x3e21c5d2	0.15798119
131	0xbde29cfb	-0.11065098
132	0xbe996ea0	-0.29967213
133	0x3dda42b5	0.106572546
134	0xbddb8abc	-0.10719821
135	0xbeaa65be	-0.33280748
136	0x3e7fe981	0.24991418
137	0x3e584c32	0.21122816
138	0xbe75713d	-0.23968978
139	0xbd1fa1dd	-0.038972724
140	0x3e1d9de1	0.15392257
141	0x3e3588ab	0.17727916
142	0xbdfe5233	-0.12418022
143	0xbc027386	-0.007962113

encoder.0.bias f4 [16]
0	0xbea91adf	-0.33028314
1	0x3df7d102	0.12100412
2	0x3e52481d	0.20535322
3	0xba54d497	-0.00081188366
4	0x3e303685	0.17208298
5	0xbe9e4e96	-0.3091933
6	0x3dd08729	0.1018203
7	0x3df99891	0.12187303
8	0xbe2c7ab8	-0.16843688
9	0x3e174cb4	0.14775354
10	0xbc4e1bc4	-0.012579862
11	0xbdcb562d	-0.09928546
12	0x3e4b29cf	0.19840167
13	0x3e47233c	0.19447035
14	0x3e75339b	0.23945467
15	0x3d30f0af	0.043198284

encoder.2.weight f4 [32, 16, 3, 3]
0	0xbd58261b	-0.052770715
1	0x3bbab028	0.005697269
2	0x3d8b6f0b	0.06808289
3	0xbd3231eb	-0.043504637
4	0xbd926163	-0.07147481
5	0xbc8e76c4	-0.017390616
6	0xbd595818	-0.05306253
7	0xbce0d8ec	-0.027447186
8	0xbd07fe03	-0.03320123
9	0xbcbd7ea0	-0.023131669
10	0xbc8c6543	-0.01713813
11	0x3d85b2cc	0.065282434
12	0xbd7d47dc	-0.06183611
13	0xbc75d308	-0.015003927
14	0x3cf435cf	0.029810814
15	0xbdb3bf28	-0.087766945
16	0xbd8f7ded	-0.0700644
17	0x3c64d860	0.013967603
18	0x3d4462c4	0.047945753
19	0xbb5fb034	-0.0034132125
20	0xbce3d672	-0.027812216
21	0x3c968d40	0.0183779
22	0xbdb9acec	-0.09066185
23	0x3cd93a95	0.026517192
24	0xbd733abe	-0.059382193
25	0xbd2f8bda	-0.042857982
26	0x3d8fa110	0.07013142
27	0xbc80ac19	-0.015707063
28	0x3ca16a34	0.019703962
29	0x3dbdd8bc	0.092698544
30	0xbbbda093	-0.005786964
31	0x3c72ae10	0.014812008
32	0x3d4e4a49	0.050363813
33	0x3c264d3f	0.010150253
34	0xbd952dae	-0.07284103
35	0x3d7eec5c	0.06223713
36	0x3d88ac44	0.06673482
37	0xbcb82669	-0.022479253
38	0x3d5ecf01	0.054396633
39	0xbbfa4c10	-0.007638462
40	0xbc691d12	-0.014228122
41	0xbd717b70	-0.05895561
42	0xbd942a04	-0.07234576
43	0xbcf2f7b8	-0.029659137
44	0xbd627d53	-0.0552953
45	0xbda118a3	-0.07866027
46	0xbc60f1ef	-0.013729556
47	0xbd94edae	-0.07271896
48	0x3d2c488a	0.042061366
49	0xbc2a7d70	-0.010405883
50	0x3d1f39b0	0.038873374
51	0x3b91c530	0.0044485554
52	0xbd7503fc	-0.059818253
53	0xbd2d7bc6	-0.042354368
54	0x3c6e6f07	0.014552838
55	0x3da84dbf	0.08217954
56	0x3c78d410	0.015187278
57	0xbd649689	-0.055807624
58	0xbd775738	-0.060385913
59	0x3d45b04d	0.048263837
60	0xbd5348e9	-0.051583204
61	0x3aece88b	0.0018074674
62	0x3c92c578	0.017916426
63	0xbc4b3376	-0.012402406
64	0x3d90c276	0.070683405
65	0xbc26a91e	-0.010172157
66	0x3b22e3c3	0.0024854995
67	0x3aa95ad0	0.0012920741
68	0xbb8ece99	-0.0043581245
69	0xbd93219e	-0.07184146
70	0x3a78afbe	0.0009486637
71	0xbd9b4e76	-0.075833246
72	0x3d92d71c	0.07169935
73	0x3dd7db3f	0.10539865
74	0xbc8a4868	-0.01688023
75	0x3c48728a	0.0122343395
76	0x3def9f33	0.11700287
77	0x3e108332	0.14112547
78	0x3ca751ff	0.020424841
79	0x3e0e9c5c	0.13926834
80	0x3c3edd92	0.011649506
81	0x3d3856b1	0.04500455
82	0xbd4b5089	-0.04963735
83	0xbd1acdc0	-0.037793875
84	0x3d80c369	0.062872715
85	0xbd7dc8f6	-0.06195923
86	0x3cf60af5	0.030034522
87	0xbd18f478	-0.03734252
88	0xbd955397	-0.07291334
89	0x3d550865	0.05200996
90	0xbd773bab	-0.06035964
91	0x3d64c4fa	0.055851914
92	0x3dbc633d	0.09198616
93	0x3d9d5fad	0.07684264
94	0x3dc3e5d4	0.095653206
95	0x3d2f7d9d	0.042844404
96	0x3cdf907f	0.02729058
97	0xbc056a3b	-0.008143003
98	0xbd641815	-0.05568703
99	0x3da21b26	0.079153344
100	0xbc8d36dc	-0.017238073
101	0x3d58effc	0.052963242
102	0xbcfab908	-0.030605808
103	0xbba9ed70	-0.0051857755
104	0x3b086630	0.0020812862
105	0x3d9dd991	0.07707513
106	0x3d3e2416	0.046421133
107	0xbd80e5ab	-0.06293806
108	0x3d9d8daf	0.076930396
109	0xbd577879	-0.052605126
110	0x3db0c028	0.08630401
111	0xbbb61677	-0.0055568772
112	0x3da47d58	0.0803172
113	0x3d84a138	0.064760625
114	0xbca08083	-0.01959253
115	0x3d5f3d4d	0.05450182
116	0x3d3f07a6	0.046638153
117	0xbce22a0d	-0.027607942
118	0x3d871c40	0.06597185
119	0xbcb1c267	-0.021699144
120	0x3cd8d108	0.026466861
121	0x3a4e7b6d	0.0007876668
122	0x3d93eb52	0.07222618
123	0x3dab4fa1	0.083647974
124	0x3d1a6335	0.037692267
125	0x3ce7d3c3	0.028299218
126	0xbc246583	-0.010033968
127	0xbd634bce	-0.055492215
128	0xbd837000	-0.06417847
129	0x3bc72e26	0.0060784994
130	0x3d8fc8ff	0.07020759
131	0xbd3d43e1	-0.046207312
132	0xbbe0496e	-0.006844691
133	0x3d6fea16	0.05857285
134	0xbd908235	-0.07056085
135	0xbc89e499	-0.016832637
136	0x3d5f14e5	0.054463286
137	0x3cdd3094	0.027000703
138	0x3d885d28	0.06658393
139	0x3d48eb92	0.049052782
140	0x390d1f36	0.00013458435
141	0xbd296c43	-0.041363012
142	0x3dd0ad9e	0.10189365
143	0xbcef1687	-0.029185547
144	0xbd196258	-0.037447304
145	0x3c38fec0	0.011291206
146	0xbbd9ad18	-0.006642949
147	0x3b20d970	0.0024543665
148	0x3d467fba	0.048461653
149	0xbc3980b0	-0.011322185
150	0xbd304240	-0.04303193
151	0xbd987c5c	-0.07445595
152	0xbd353338	-0.0442383
153	0xbcde87c8	-0.027164355
154	0x3cc40e5b	0.023932626
155	0xbdbb34b2	-0.0914091
156	0xbd81f71e	-0.06345962
157	0xbc46f5ff	-0.012143611
158	0xbd86f018	-0.06588763
159	0xbcef09d6	-0.029179495
160	0xbc6ae80c	-0.014337551
161	0x3ca3a973	0.01997826
162	0xbcc36d57	-0.023855848
163	0x3cfada66	0.030621719
164	0x3d629b90	0.055324137
165	0xbdccbae0	-0.09996581
166	0xbda9b216	-0.0828592
167	0x3d4910d7	0.049088325
168	0xbd51b262	-0.05119551
169	0x3c9b4c2a	0.018957216
170	0x3c5f0c88	0.0136138275
171	0xbc713c6e	-0.01472388
172	0x3cf29ded	0.02961632
173	0xbd45e2dd	-0.048312057
174	0x3d6f25cb	0.05838565
175	0xbd80d2b3	-0.06290188
176	0x3db8d3d1	0.09024776
177	0x3d4a4961	0.049386386
178	0xbd67fc0e	-0.056636862
179	0xbd9024a9	-0.07038242
180	0xbb8b3f10	-0.004249461
181	0x3d49be2f	0.04925364
182	0x3d05090c	0.03247933
183	0x3bd67598	0.00654478
184	0xbce48b82	-0.027898554
185	0x3d5c1363	0.053729426
186	0xbd993acc	-0.07481918
187	0xbdb9abfb	-0.09066006
188	0x3d1f7ce1	0.038937453
189	0x3d9f37af	0.07774293
190	0x3d1a6e5b	0.0377029
191	0xbd952597	-0.0728256
192	0xbd038eda	-0.032118656
193	0x3d882fb1	0.066497214
194	0xbd7a792b	-0.06115071
195	0x3d8a4239	0.06750912
196	0x3c5be332	0.013420867
197	0x3d6ce4da	0.057835437
198	0x3c924863	0.017856782
199	0xbd3992b1	-0.04530591
200	0x3d9a98c0	0.07548666
201	0x3c9c50d4	0.01908151
202	0xbb4d054e	-0.003128368
203	0xbd1acc73	-0.037792634
204	0xbcd56eef	-0.026053874
205	0x3dafed79	0.08590216
206	0xbc5328a2	-0.012888106
207	0xbc63c3b9	-0.013901644
208	0x3dacab0e	0.084310636
209	0xbcffd0f1	-0.03122756
210	0x3cc0af2e	0.023521032
211	0xbd84dfcf	-0.064880006
212	0x3d3f5c63	0.046718966
213	0x3cd7b4d7	0.026331348
214	0xbce179aa	-0.027523834
215	0xbd33b00a	-0.043869056
216	0x3dea9f89	0.1145621
217	0x3c9cead1	0.019154938
218	0x3d6aacb4	0.05729361
219	0x3d30c291	0.043154303
220	0x3d21afdb	0.03947435
221	0x3dfa34a6	0.12217073
222	0x3d73a723	0.059485566
223	0xbc3259de	-0.010885684
224	0x3df44d8e	0.11928855
225	0xbd2d5219	-0.042314623
226	0x3d6aff34	0.057372287
227	0x3da40afd	0.08009908
228	0xbd93346c	-0.07187733
229	0x3d0412a8	0.032244354
230	0xbc78ef03	-0.015193704
231	0x3da443da	0.08020754
232	0x3cb1fa69	0.02172585
233	0x3d8d4b0d	0.068990804
234	0x3da79b2c	0.081838936
235	0xb9b521ba	-0.00034548139
236	0x3c22f1d3	0.009945351
237	0x3d4f6643	0.050634634
238	0xbd50e695	-0.05100115
239	0x3db3f7cb	0.08787497
240	0x3da5d393	0.08096995
241	0x3bfc49c4	0.0076992232
242	0x3cff2354	0.031144775
243	0x3cfe0318	0.031007335
244	0x3d22db78	0.039760083
245	0xbbe325f8	-0.0069320165
246	0x3d30b176	0.04313799
247	0x3d572cf8	0.05253312
248	0x3d547793	0.051871847
249	0xbd83844e	-0.064217195
250	0xbc69f1f0	-0.014278874
251	0x3d9e4895	0.07728688
252	0x3c2a017f	0.010376333
253	0xbd161f89	-0.036651168
254	0xbcde4440	-0.027132154
255	0x3db3bb73	0.087759875

encoder.2.bias f4 [32]
0	0xbcb8689d	-0.022510821
1	0xbd42154e	-0.0473836
2	0xbd3515f0	-0.044210374
3	0xbcacc6af	-0.021090833
4	0x3d1457f7	0.036216702
5	0xbc815bf0	-0.01579091
6	0x3b9e179c	0.004824592
7	0x3d89b88f	0.06724655
8	0xbd58ce19	-0.052930925
9	0x3d2c86a9	0.04212061
10	0xbcba93dd	-0.022775585
11	0xbcfbb987	-0.030728115
12	0x3d25f572	0.040517278
13	0x3cb886a9	0.022525148
14	0x3c0061d0	0.00783582
15	0xbd678705	-0.05652525
16	0xbd2bc64e	-0.041937165
17	0x3c51ea80	0.012812257
18	0xbd959236	-0.07303278
19	0xbcd3fb71	-0.025876733
20	0x3c680c57	0.014163098
21	0xbd580a36	-0.052744113
22	0xbc86b340	-0.016442895
23	0x3d104716	0.035224043
24	0x3d3cbc8c	0.04607825
25	0xbdabbd57	-0.08385723
26	0xbb43e679	-0.002989201
27	0xbd5366c8	-0.05161169
28	0xbba6d6b8	-0.0050915144
29	0x3d7a96fc	0.061179146
30	0xbd2767a9	-0.040870342
31	0xbd7e17c3	-0.06203438

encoder.4.weight f4 [64, 32, 3, 3]
0	0xbd701b4b	-0.05861978
1	0xbcf38f54	-0.02973143
2	0xbd54c84b	-0.051948827
3	0x3d09053a	0.03345225
4	0x3d42e600	0.047582626
5	0xbd6c8ccf	-0.057751473
6	0xbd53d123	-0.05171312
7	0xbc88c59f	-0.016695796
8	0x3d26e327	0.040743973
9	0xbc8f2838	-0.017475232
10	0xbd2fe6e6	-0.04294481
11	0xbd758204	-0.059938446
12	0x3cf093f9	0.029367434
13	0xbd54a5d3	-0.051915955
14	0x3c6c3f96	0.014419457
15	0xbd671ed8	-0.0564259
16	0xbd156b2e	-0.036479168
17	0xbcb62cd0	-0.022238165
18	0x3ca9f870	0.020748347
19	0x3d253841	0.04033685
20	0xbd5488fa	-0.051888444
21	0x3b693201	0.0035582783
22	0xbd649227	-0.055803444
23	0x3cb7d3f3	0.022439932
24	0x3d417152	0.04722721
25	0xbcbc7400	-0.023004532
26	0x3ca0bf44	0.019622453
27	0xbcd7127a	-0.026253927
28	0x3ca4fae1	0.02013916
29	0xbd858c38	-0.06520885
30	0xbb83c7eb	-0.004021635
31	0xbd1d9351	-0.03847057
32	0xbc009a06	-0.007849222
33	0x3beeb8fe	0.0072852364
34	0xbd272d5a	-0.040814735
35	0xbccb1621	-0.024790825
36	0xbd145106	-0.036210082
37	0x3d684291	0.056704108
38	0x3d264861	0.04059637
39	0x3bd08a48	0.0063641407
40	0x3ca595f4	0.020213105
41	0xbcc2fd0b	-0.0238023
42	0xbcf30f27	-0.029670311
43	0x3d45fad7	0.048334923
44	0x3d4a6bd6	0.049419247
45	0x3d0cc16e	0.034364156
46	0x3c8a335b	0.016870191
47	0xbc366425	-0.011132275
48	0xbcbe09cb	-0.023198029
49	0x3d19587c	0.0374379
50	0xbd2bb854	-0.041923836
51	0xbd868fde	-0.06570409
52	0x3d294c2e	0.041332416
53	0xbce2c539	-0.027681934
54	0x3bfb8cbc	0.007676689
55	0x3d3fc380	0.046817303
56	0x3d38ddde	0.045133464
57	0xbb2b9dd5	-0.0026186605
58	0x3d0bd2cf	0.03413659
59	0xbd4a5204	-0.049394622
60	0xbd6ad4ef	-0.057331976
61	0x3d384d71	0.04499573
62	0xbd3bc0d3	-0.04583819
63	0x3d2d195d	0.042260516
64	0xbd246099	-0.040131185
65	0xbcde568d	-0.02714088
66	0x3d0e963b	0.03481124
67	0x3cf0a554	0.02937571
68	0xbd58c352	-0.052920647
69	0xbd498e44	-0.04920794
70	0xbcc5e290	-0.024155885
71	0xbc1e43a0	-0.009659678
72	0xbd4223a4	-0.04739727
73	0x3cf4440b	0.029817602
74	0xba305c20	-0.0006727595
75	0xbabaf2f8	-0.0014263084
76	0xbcc21cc1	-0.023695352
77	0xbbc129d8	-0.0058948807
78	0xbca26462	-0.019823257
79	0xbc19fa54	-0.009398062
80	0xbcd60bb3	-0.026128625
81	0x3cb8197a	0.022473086
82	0xbd6f051f	-0.058354493
83	0xbd402c8e	-0.04691749
84	0x3bfb0d80	0.0076615214
85	0xbb22416a	-0.0024758228
86	0xbd646d3b	-0.055768233
87	0xbabf4770	-0.0014593434
88	0xbd678914	-0.056527212
89	0x3d2d2b89	0.042277846
90	0x3bd32d7b	0.0064446307
91	0x3d1aa4bb	0.037754755
92	0xbd09ae03	-0.033613216
93	0x3d1f9a07	0.03896525
94	0x3cdeb4e9	0.027185874
95	0x3b0c09a9	0.0021368063
96	0xbcdd0ebb	-0.026984563
97	0xbb35e489	-0.0027754626
98	0x3c855908	0.016277805
99	0xbd1d586e	-0.03841441
100	0x3af29659	0.0018507942
101	0xbd0964de	-0.03354346
102	0xbba9856d	-0.0051733763
103	0x3d37d80b	0.04488377
104	0xbd616a7b	-0.05503319
105	0xbc68f847	-0.01421935
106	0x3ca8e6a5	0.020617792
107	0x3d094f6a	0.033523
108	0xbd4f6203	-0.05063058
109	0x3b2efc54	0.0026700692
110	0xbc57377e	-0.013135789
111	0xbcfe6929	-0.031056004
112	0x3cfe48c5	0.031040559
113	0x3c73c344	0.014878098
114	0xbd0e24ce	-0.03470307
115	0xbb409be1	-0.0029389786
116	0x3d0a858b	0.033818763
117	0xbd383b24	-0.044978276
118	0xbd1144ea	-0.035466112
119	0x3cf8be36	0.030364137
120	0xbd15e2e4	-0.036593333
121	0xbd7d04b6	-0.06177207
122	0x3c50a9a6	0.01273576
123	0x3cbf1bc8	0.023328677
124	0x3caf96a4	0.021434136
125	0xbd22d6a9	-0.039755497
126	0x3ae1ff2b	0.0017242184
127	0x3c5c238f	0.013436212
128	0x3cb4b8bf	0.02206075
129	0x3c7ab248	0.015301295
130	0x3cddf29b	0.027093222
131	0x3d0763ec	0.033054277
132	0xbae457ed	-0.0017421223
133	0xbd861d55	-0.065485634
134	0xbc8d6c4b	-0.017263552
135	0xbd2af0a3	-0.041733395
136	0xbccedff5	-0.025253275
137	0xbc07087c	-0.008241769
138	0x3cabb03f	0.020958064
139	0x3cba188d	0.022716785
140	0xbd52f969	-0.051507387
141	0x3c8fe0e2	0.017563287
142	0x3b95f82c	0.0045767035
143	0x3b40aa04	0.0029398212
144	0xbd674e60	-0.05647123
145	0x3d0c9800	0.034324646
146	0xbd477f9a	-0.048705675
147	0x3d4f9705	0.050681133
148	0x3d09287d	0.03348588
149	0xbc523a3e	-0.012831269
150	0xbd675a14	-0.05648239
151	0xbd621f79	-0.055205796
152	0x3cad1d46	0.021132123
153	0x3d111bfa	0.03542707
154	0x3cf3fd2e	0.029783811
155	0x3ca60653	0.020266687
156	0x3cabb736	0.020961385
157	0x3c11e421	0.008904488
158	0x3ce2f50d	0.02770474
159	0x3c1b89bc	0.009493288
160	0x3d44bdb0	0.048032463
161	0xbd16e66e	-0.03684085
162	0x3d4c07b3	0.04981203
163	0xbb9fa0a8	-0.0048714466
164	0x3ce6ea6e	0.028187957
165	0xbd4949a6	-0.049142502
166	0xbd6e4e0a	-0.058179893
167	0x3ce2f886	0.027706396
168	0xbac968be	-0.0015366299
169	0x3d2f5599	0.04280624
170	0x3d31d3e7	0.043414976
171	0x3d19c776	0.037543736
172	0x3cc55bdc	0.024091654
173	0x3c2af223	0.010433706
174	0xbccdb41a	-0.025110293
175	0xbc8b4017	-0.016998334
176	0x3c7c8c43	0.0154143
177	0xbccc5997	-0.024945064
178	0xbc688911	-0.014192835
179	0xbcd0959e	-0.025461968
180	0x3d36b149	0.044602666
181	0x3c558863	0.013033005
182	0x3d6adae1	0.057337645
183	0x3d409929	0.047021065
184	0xbd7751c0	-0.060380697
185	0xbd4b6d65	-0.049664874
186	0xbd1a98a1	-0.037743215
187	0xbd38e071	-0.04513592
188	0xbc88866a	-0.016665656
189	0xbd864443	-0.06555989
190	0x3cb601ea	0.02221771
191	0x3b02aec0	0.0019940585
192	0xbaa4b2bc	-0.0012565474
193	0xbcc91f90	-0.024551183
194	0x3cc3115e	0.023811992
195	0xbca6a6c5	-0.020343194
196	0xbc65c79b	-0.01402464
197	0xbcc5a798	-0.024127766
198	0xbd005e86	-0.031340145
199	0x3c3d3359	0.011547887
200	0xbd87fb29	-0.06639702
201	0x3d105ab7	0.035242762
202	0x3ba4efe4	0.00503348
203	0x3d070733	0.03296585
204	0x3d31a0b2	0.04336614
205	0x3d269ec6	0.040678762
206	0x3ce6863f	0.028140185
207	0xbbfa51eb	-0.00763916
208	0xbcac7727	-0.02105291
209	0x3b8e3f19	0.004341018
210	0x3ccebe7b	0.025237313
211	0xbcc0fac5	-0.023557076
212	0xbd3cb334	-0.04606934
213	0x3cac435b	0.021028211
214	0x3d43cfb7	0.047805514
215	0xbd04761b	-0.032339197
216	0xbcae6f3b	-0.021293273
217	0x3d067a49	0.032831464
218	0xbd0eadf2	-0.034833856
219	0xbd28ac7e	-0.041180126
220	0x3c5e8194	0.0135806985
221	0x3d108b2f	0.035288986
222	0xbc6a09a0	-0.014284521
223	0x3c9eeab8	0.019399032
224	0xbd289b02	-0.041163452
225	0xbd83ccf1	-0.06435574
226	0xbd481e9b	-0.048857313
227	0x3b572268	0.0032826904
228	0x3ce2828f	0.027650146
229	0x3d4422fb	0.047884922
230	0xbbcbecf9	-0.0062233177
231	0xbd3dc84f	-0.046333607
232	0xbcc3901e	-0.023872431
233	0xba5e9c79	-0.0008491944
234	0xbd5be69f	-0.053686734
235	0xbd402561	-0.046910647
236	0xbc84e6d0	-0.016223341
237	0x3d2f3bb5	0.04278155
238	0x3cf9c15f	0.030487714
239	0xbd24e66f	-0.04025882
240	0x3b72f0df	0.003706984
241	0xbcfb34a4	-0.03066475
242	0x3d0f5038	0.034988612
243	0x3c0988c1	0.008394421
244	0xbd676f58	-0.05650267
245	0x3d282ead	0.04106014
246	0x3cf228ee	0.029560532
247	0x3c96ecb6	0.01842342
248	0x3d02a3d7	0.03189453
249	0x3d589030	0.052871883
250	0x3c569a5c	0.013098326
251	0xbc5cf99c	-0.013487246
252	0x39882f51	0.00025975195
253	0xbc877832	-0.016536806
254	0xbc5ba8eb	-0.013406972
255	0xba7ae4f1	-0.0009570858

encoder.4.bias f4 [64]
0	0x3d03f773	0.032218408
1	0xbd312f41	-0.043257955
2	0xbd214487	-0.039371993
3	0xbc59b705	-0.013288264
4	0xbcd1522b	-0.025551876
5	0x3d48c2ed	0.04901402
6	0xbd04a063	-0.03237952
7	0x3d69fe80	0.057127476
8	0x3d31b752	0.04338772
9	0xbd1de495	-0.03854807
10	0x3d4778c5	0.04869916
11	0xbcf163f7	-0.029466612
12	0xbd3d44ff	-0.046208378
13	0x3be36a7c	0.006940184
14	0x3d8368a3	0.06416442
15	0xbd371ba8	-0.04470411
16	0x3d346ccf	0.04404908
17	0xbd1122f4	-0.035433725
18	0x3d269de0	0.040677905
19	0xbd6598d6	-0.05605396
20	0x3dbab1a3	0.09115913
21	0x3c92de71	0.017928334
22	0x3b768348	0.003761487
23	0x3c9b231e	0.018937644
24	0x3b951467	0.0045495513
25	0x3e215b0b	0.15757386
26	0x3d78d35b	0.06074844
27	0xbd3f03fa	-0.04663465
28	0x3d0009de	0.03125941
29	0xbcadfcd4	-0.021238722
30	0x3d4c783b	0.04991935
31	0x3d09db00	0.03365612
32	0xbc48cbb8	-0.012255602
33	0xbd4b0e1d	-0.049574006
34	0x3df9e227	0.12201338
35	0xbcf7911a	-0.030220557
36	0xbd19aa44	-0.037515894
37	0xbc899445	-0.016794333
38	0x3d449c8a	0.04800085
39	0x3d128486	0.035770915
40	0x3c00c52f	0.007859512
41	0x3d2c9bb1	0.042140666
42	0xbc8efc77	-0.017454369
43	0x3d8e6074	0.06951991
44	0xbd659e65	-0.05605926
45	0xbc35b8cd	-0.011091423
46	0xbc84e0d3	-0.016220486
47	0x3c91fc1a	0.017820407
48	0xbd119731	-0.035544578
49	0xbb968c7b	-0.0045943833
50	0xbd13481e	-0.03595745
51	0x3d6c8765	0.05774631
52	0xbd2c262e	-0.0420286
53	0x3d4dadf4	0.050214723
54	0xbd55c059	-0.05218539
55	0x3cd31d95	0.025770942
56	0xbd06cedf	-0.03291213
57	0x3be80a2c	0.0070812907
58	0xbbe4073b	-0.0069588698
59	0xbd0527cd	-0.03250866
60	0x39cbf38a	0.00038900628
61	0x3d819313	0.0632688
62	0x3cc9ea19	0.02464776
63	0x3d4654cb	0.04842071

decoder.0.weight f4 [64, 32, 3, 3]
0	0x3d37515c	0.044755325
1	0x3cf516e5	0.029918144
2	0x3c8588bd	0.016300553
3	0x3d43edf8	0.047834367
4	0x3d89e835	0.06733743
5	0x3d859c01	0.06523896
6	0xbcdd7dd0	-0.027037531
7	0x3be115f2	0.006869071
8	0xbbaee8bb	-0.005337802
9	0xba6abb66	-0.0008954316
10	0x3d1153f5	0.03548046
11	0x3d21dc63	0.039516818
12	0x3d2bbbf4	0.041927293
13	0xbd7af2fe	-0.06126689
14	0xbca85027	-0.020546032
15	0xbd277100	-0.04087925
16	0x3caaa6f9	0.020831572
17	0xbd163870	-0.036674917
18	0xbd18b92a	-0.03728596
19	0x3d325c3d	0.043544997
20	0x3d8ac046	0.067749545
21	0x3d68d511	0.05684382
22	0xbcd6401a	-0.026153613
23	0x3d7fb96f	0.062432703
24	0x3bfe9e64	0.0077703465
25	0x3cbcdd72	0.023054812
26	0xbcb160c6	-0.02165259
27	0x3d56ab73	0.0524096
28	0xbd4bbd2f	-0.049740966
29	0x3d0d385d	0.03447758
30	0xbcb7e536	-0.022448163
31	0xbbc43d0c	-0.0059887227
32	0x3d760f0b	0.06007294
33	0x3c594b9b	0.013262655
34	0x3af47fec	0.0018653846
35	0x3d0a9fa1	0.03384364
36	0x3c5f67c7	0.013635582
37	0x3d0098f3	0.031395864
38	0xbc708df1	-0.014682279
39	0xbd3f449e	-0.046696298
40	0x3bf9d9f4	0.007624859
41	0xbd37f2b8	-0.04490921
42	0xbcfba6f6	-0.030719262
43	0xbd14f95a	-0.036370613
44	0x3d121213	0.03566177
45	0xbd0a5516	-0.03377255
46	0xbd24328a	-0.04008726
47	0xbc8ddcc7	-0.017317189
48	0x3cd0c205	0.02548314
49	0x3cbe1850	0.023204952
50	0xbd174b4e	-0.03693705
51	0x3c8cbc30	0.017179579
52	0xbd81076f	-0.06300246
53	0xbc89d4b4	-0.016825058
54	0xbc8e1df1	-0.017348262
55	0x3d526c27	0.051372673
56	0xbcf365dd	-0.029711658
57	0xbc85c275	-0.016328076
58	0x3c05596a	0.008138994
59	0x3d3dfdf1	0.046384756
60	0x3d23577d	0.039878357
61	0xbc30319d	-0.010754016
62	0xbcde04dd	-0.027101928
63	0x3b9cccba	0.0047851475
64	0xbb97fa0c	-0.004637962
65	0xbd2170b3	-0.03941412
66	0xbcb07d66	-0.02154417
67	0x3d6b42ca	0.057436742
68	0x3d477da2	0.048703797
69	0x3b1c1747	0.0023817585
70	0x3d302140	0.04300046
71	0xbd3917f4	-0.04518886
72	0x3d24f1dd	0.04026972
73	0x3d678283	0.05652095
74	0x3c388226	0.011261499
75	0x3d2a96d4	0.041647747
76	0x3b3ca990	0.002878759
77	0x3d45fb9c	0.048335657
78	0xbb17f432	-0.0023186323
79	0x3d5d1e54	0.053984
80	0xbc879639	-0.016551124
81	0x3cfe3db6	0.031035285
82	0x3d54d809	0.05196384
83	0xbc485c8a	-0.012229094
84	0xbd049851	-0.032371823
85	0x3d1d0be2	0.03834141
86	0xbc203273	-0.009777653
87	0xbd023d8f	-0.031796988
88	0xbd35e82b	-0.044410866
89	0xbd3b9d36	-0.045804225
90	0xbd09e143	-0.033662092
91	0xbc6bf164	-0.014400814
92	0x3c89fd81	0.016844513
93	0x3d206225	0.039156098
94	0x3c1bf9c5	0.009519999
95	0xbc2d27b9	-0.010568553
96	0xbd41cda4	-0.047315255
97	0x3d7076a2	0.058706887
98	0xbd39a398	-0.04532203
99	0xbd41c8cb	-0.04731063
100	0xbcc0e2ab	-0.023545584
101	0xbcc9c8f6	-0.024631958
102	0xbb894872	-0.0041895444
103	0xbca5ad15	-0.020224134
104	0x3d15b2ac	0.036547348
105	0x3cbd91de	0.023140844
106	0xbd424ab3	-0.04743452
107	0xbd32f222	-0.043687947
108	0xbd6b739e	-0.057483308
109	0xbd96a4e1	-0.07355667
110	0xbd8d9172	-0.06912507
111	0xba8ded31	-0.0010828135
112	0xbcd8890d	-0.026432538
113	0xbcd3e17f	-0.02586436
114	0xbd914a19	-0.07094211
115	0x3c06c806	0.0082264
116	0xbcde6f05	-0.027152548
117	0xbd35a79e	-0.044349305
118	0x3bbfb26d	0.0058501274
119	0xbb536133	-0.003225398
120	0x3d23261c	0.039831266
121	0x3d0bd905	0.034142513
122	0xbb009ce5	-0.0019624766
123	0x3d101dfd	0.03518485
124	0x3ca5e42a	0.020250399
125	0x3d17da33	0.037073325
126	0x3ca12b10	0.019673854
127	0x3d52872d	0.051398445
128	0xbd6684f6	-0.056279145
129	0xbc798c24	-0.015231166
130	0xbd2e5fed	-0.04257195
131	0xbcb4d2fe	-0.022073265
132	0x3984a8fe	0.0002530291
133	0x3d5ee407	0.054416683
134	0x37fa7b1a	2.9859646e-05
135	0x3d214085	0.03936817
136	0xbd2c9f16	-0.042143904
137	0xbcd9a842	-0.02656949
138	0x3d6096ca	0.054831304
139	0x3d2bb1d2	0.04191763
140	0xbd1058bb	-0.03524087
141	0x3d8776a6	0.06614427
142	0x3bca7af3	0.0061792075
143	0x3ce0ca67	0.027440263
144	0x3c051292	0.008122103
145	0xbcccc6e5	-0.024997184
146	0xbc994dda	-0.01871388
147	0x3d61fbb5	0.055171687
148	0x3d101f42	0.03518606
149	0x3d5fb0ac	0.054611847
150	0xbc12b053	-0.008953172
151	0x3b594090	0.0033150055
152	0xbcf8e777	-0.030383809
153	0xbbc99053	-0.006151238
154	0xbc95ee47	-0.018302096
155	0xbce20b73	-0.02759335
156	0xbc0414cd	-0.0080616
157	0x3d28af5a	0.041182853
158	0x3c81af23	0.015830582
159	0xbd3227fe	-0.04349517
160	0x3d227f47	0.039672162
161	0x3c37ed05	0.011225943
162	0xbd4077fd	-0.04698943
163	0xbd0d4b1d	-0.03449546
164	0xbb88996a	-0.004168679
165	0xbcdf91c9	-0.027291195
166	0xbbec1d09	-0.0072056097
167	0xbbbefd24	-0.0058285166
168	0x3d4184b8	0.04724571
169	0xbbbdf779	-0.0057973233
170	0x3d395250	0.045244515
171	0xbcd6ed56	-0.026236217
172	0x3cb1217b	0.02162241
173	0xbbb25eb0	-0.0054434165
174	0x3d0838b7	0.033257212
175	0xbd4a9e1a	-0.049467184
176	0xbd41fd47	-0.047360685
177	0x3c1311ac	0.008976381
178	0x3d37286e	0.04471629
179	0x3c8099b4	0.015698291
180	0x3d64c741	0.055854086
181	0x3cb4aa4b	0.022053858
182	0xbb3a9c31	-0.0028474445
183	0xbc805d26	-0.015669417
184	0x3be307e4	0.006928431
185	0xbb7cb2af	-0.0038558652
186	0x3d0ae638	0.03391096
187	0x3b60876d	0.0034260408
188	0xbd2933b7	-0.041309085
189	0xbb0cb32c	-0.00214691
190	0x3d1d245c	0.038364753
191	0xbbe23aba	-0.0069039734
192	0x3d1d593d	0.038415182
193	0xbd05430d	-0.032534648
194	0x3d08b6d5	0.033377487
195	0xbbc03885	-0.0058661127
196	0x3d331696	0.04372271
197	0x3c92ebe5	0.017934749
198	0xbce3fbc7	-0.027830018
199	0xbd15a6cb	-0.03653602
200	0xbd45c1f9	-0.04828069
201	0xbccd9050	-0.025093228
202	0xbc3f689d	-0.011682657
203	0xbc736578	-0.014855735
204	0xbd474560	-0.048650146
205	0xbcb77a51	-0.022397192
206	0xbd7551c1	-0.05989242
207	0xbcb01445	-0.02149404
208	0xbd6b29c9	-0.057412896
209	0xbd0ecb20	-0.034861684
210	0xbcdca271	-0.026932927
211	0x3d3b2988	0.045693904
212	0x3d4811ba	0.04884503
213	0x3d3eea79	0.04661033
214	0xbc16966c	-0.009191137
215	0xbd31c5d9	-0.043401573
216	0xbce8c661	-0.028414907
217	0xbd210a92	-0.03931672
218	0xbd75cd9f	-0.06001055
219	0x39304420	0.00016810047
220	0xbcfe161a	-0.031016398
221	0x3d430c85	0.04761936
222	0xbc9dc24e	-0.01925769
223	0x3d425b99	0.047450636
224	0x3c450eb3	0.01202743
225	0xbcf489fd	-0.029850954
226	0xbd39e13e	-0.045380823
227	0xbcb81572	-0.022471163
228	0xbd2648bc	-0.04059671
229	0x3d49f7d1	0.0493086
230	0xbcb1328b	-0.021630546
231	0x3d0b2616	0.03397187
232	0xbd625367	-0.05525532
233	0xbc661714	-0.014043588
234	0x3cf9fac5	0.030515084
235	0xbd02b2dc	-0.031908855
236	0xbd0f6540	-0.03500867
237	0xbd5845a7	-0.0528008
238	0x3cd02bc6	0.025411498
239	0x399e66c0	0.00030212663
240	0xbd20015c	-0.039063796
241	0x3d24bb96	0.04021796
242	0xbd6d074f	-0.0578683
243	0x3cddf730	0.027095407
244	0x3c7a2e42	0.015269818
245	0xbd22b65d	-0.039724696
246	0xbd08eefd	-0.033431042
247	0x3d314224	0.043275967
248	0x3b4e48eb	0.0031476568
249	0x3d2136f6	0.039359055
250	0x3d0d88ee	0.034554414
251	0xbbb9af59	-0.005666655
252	0x3c8bd782	0.017070536
253	0x3d5851ab	0.05281226
254	0xbb92bbf9	-0.0044779745
255	0xbc231f5d	-0.009956208

decoder.0.bias f4 [32]
0	0x3c9d2623	0.019183224
1	0x3d6e07c7	0.058112886
2	0x3d5ef353	0.05443127
3	0xbc32783e	-0.010892926
4	0x3d8cec79	0.06881041
5	0xbd1b0d22	-0.03785432
6	0x3d453c19	0.048153017
7	0x3d8330e2	0.06405808
8	0xbd93db36	-0.072195455
9	0xbbc6604f	-0.0060539613
10	0x3cca1e6d	0.024672711
11	0x3c359c07	0.011084563
12	0x3b19df43	0.0023479022
13	0x3c7aab16	0.015299579
14	0xbb6275c9	-0.0034555069
15	0x3d8dbbc5	0.0692058
16	0x3ca783ac	0.020448528
17	0x3d8ee75a	0.069777206
18	0x3cb1e815	0.02171711
19	0xbcad81ec	-0.021180116
20	0x3d435b9a	0.04769478
21	0x3cd93f0c	0.02651932
22	0xbd72c2d7	-0.059267845
23	0xba0ed655	-0.0005448808
24	0xbc00d461	-0.007863135
25	0xbb630a61	-0.0034643637
26	0xbcf03999	-0.02932434
27	0xbca01208	-0.019539848
28	0x3c523898	0.012830876
29	0x3ab2b325	0.0013633711
30	0x3d625123	0.05525316
31	0xbc38ba5b	-0.011274899

decoder.2.weight f4 [32, 16, 3, 3]
0	0xbc067f2e	-0.008209033
1	0x3c4edafc	0.012625452
2	0xbcbeebe9	-0.02330585
3	0x3d789a06	0.060693763
4	0x3cb70d16	0.022345107
5	0x3ca45717	0.020061059
6	0x3ba8fa80	0.005156815
7	0xbd412a26	-0.047159337
8	0x3d6f5bd6	0.05843719
9	0x37ea6e19	2.7946242e-05
10	0x3d3851f5	0.045000035
11	0x3d95f5ec	0.073222965
12	0xbc21d597	-0.009877584
13	0x3d66c277	0.0563378
14	0xbd47ce16	-0.048780523
15	0x3d1aa47c	0.03775452
16	0x3c5100a0	0.012756497
17	0xbcfd5c37	-0.03092776
18	0x3ac014cf	0.0014654639
19	0xbce637c3	-0.028102761
20	0x3ca4c633	0.02011404
21	0x3d26f76e	0.04076331
22	0xbd916795	-0.07099835
23	0x3ceb5b6b	0.028730115
24	0x3d699426	0.05702605
25	0xbd00c60b	-0.03143887
26	0x3d6026bb	0.054724436
27	0x3dd9335d	0.106055
28	0xbd2974db	-0.041371208
29	0x3d64556b	0.055745523
30	0x3d0385b7	0.032109942
31	0x3dc2c1cb	0.09509619
32	0xbbf1065f	-0.007355496
33	0xbd282d99	-0.04105911
34	0x3dabab16	0.083822414
35	0x3d8021d2	0.06256451
36	0x3c0e3999	0.008680725
37	0xbba3025d	-0.004974647
38	0x3d8ab756	0.0677325
39	0x3d6c0244	0.05761935
40	0xbcb6cc42	-0.022314195
41	0x3d9b6cd7	0.07589119
42	0xbc23ca0c	-0.009996902
43	0xbd53acd3	-0.05167849
44	0xbd5b1b21	-0.05349267
45	0xbdab4d58	-0.083643615
46	0xbd1771f3	-0.036973905
47	0xbd3cede3	-0.046125304
48	0xbd8f0674	-0.06983653
49	0xbd84c422	-0.06482722
50	0x3cd141e3	0.025544113
51	0x3d206d89	0.03916696
52	0x3c747e69	0.014922717
53	0x3c887f9a	0.016662408
54	0x3d5887ca	0.052863874
55	0xbd41ffe2	-0.04736317
56	0x3b369d68	0.0027864818
57	0xbcd09753	-0.025462782
58	0x3c09479f	0.008378892
59	0xbd48b651	-0.049001995
60	0xbdad5ddd	-0.084651686
61	0x3d83a608	0.06428152
62	0x3d2f2915	0.04276379
63	0x3d4e433f	0.0503571
64	0xbd15d299	-0.036577795
65	0x3d7e37e8	0.062065035
66	0x3bdec969	0.0067989123
67	0xbdb53717	-0.08848398
68	0x3d9902b3	0.07471218
69	0xbd79ebbb	-0.061015826
70	0x3c087b22	0.008330138
71	0x3d81f176	0.06344883
72	0x3d1c5add	0.03817259
73	0xbce36edc	-0.027762823
74	0x3bddcb5d	0.0067686276
75	0xbb64195e	-0.003480516
76	0xbd1d6954	-0.038430527
77	0x3d1bad5f	0.038007136
78	0x3d9da50b	0.07697495
79	0xbd5f3986	-0.054498218
80	0x3d82fc91	0.063958295
81	0xbd8b0b6a	-0.067892864
82	0x3c9f6587	0.019457592
83	0xbd97cd06	-0.07412152
84	0xbd893210	-0.06699002
85	0xbcfa9dc6	-0.03059281
86	0xbd00f557	-0.031483974
87	0xbcc97a02	-0.02459431
88	0xbd444100	-0.04791355
89	0xbd814ef4	-0.06313887
90	0x3d626573	0.05527253
91	0x3d213feb	0.039367598
92	0x3d471d51	0.048611943
93	0x3d3c19c7	0.04592302
94	0xbb3f7749	-0.0029215387
95	0xbce847e4	-0.028354593
96	0x3d53fd62	0.051755317
97	0xbc9f2bc8	-0.019430056
98	0x3da5c03b	0.08093306
99	0xbb7b271e	-0.0038322876
100	0xbd028ec5	-0.031874437
101	0xbc906ee2	-0.017630998
102	0xbd6be644	-0.057592645
103	0xbd336cf0	-0.043805063
104	0xbc90b860	-0.017666042
105	0x3d9b5ec2	0.07586433
106	0x3d973e69	0.07384951
107	0x3ddc621a	0.10760899
108	0x3bd6572c	0.0065411534
109	0x3ce0434d	0.027375842
110	0xbd937702	-0.07200433
111	0x3daf71d1	0.08566631
112	0x3dc5dd44	0.09661344
113	0x3d5e6211	0.054292742
114	0x3d31738d	0.04332309
115	0x3d83dc02	0.064384475
116	0xbdb5dd48	-0.08880097
117	0x3d336b80	0.043803692
118	0xbcfb4281	-0.03067136
119	0x3c4dd6f1	0.012563453
120	0x3cdb2cf1	0.026754828
121	0x3d6edc3e	0.058315508
122	0x3c76abfc	0.015055653
123	0x3cd6ef7e	0.026237246
124	0xbc4e3439	-0.012585693
125	0xbd75c2ca	-0.06000022
126	0xbdc75248	-0.09732491
127	0x3cd0a7a7	0.025470568
128	0xbd6cff2d	-0.057860542
129	0xbc6cd28a	-0.014454493
130	0x3d1d6553	0.03842671
131	0x3d65a478	0.056065053
132	0xbd82ac08	-0.063804686
133	0x3d473480	0.048634052
134	0xbcc1fe11	-0.023680719
135	0x3d51e7a2	0.051246293
136	0x3d7f6166	0.062348746
137	0xbba6a201	-0.0050852303
138	0x3d51ebe4	0.051250353
139	0x3a8821a2	0.0010386
140	0xbda40d19	-0.08010311
141	0xbd9ed034	-0.07754555
142	0x3cab5ab6	0.020917278
143	0x3ceac02f	0.028656093
144	0xbd6a0dac	-0.057141945
145	0x3d022237	0.03177091
146	0x3d673391	0.056445662
147	0xbce036c4	-0.027369864
148	0xbbc860a4	-0.006115036
149	0xbd81345e	-0.063088164
150	0x3d2d9465	0.04237785
151	0x3d81fd4e	0.06347142
152	0x3bec135e	0.007204457
153	0x3d70a798	0.05875358
154	0xbb305e76	-0.0026911772
155	0x3bce23ef	0.0062909047
156	0x3cc495a8	0.023997143
157	0x3d55a1f7	0.052156415
158	0x3d82d4c9	0.06388242
159	0xbd406ac7	-0.04697683
160	0x3d44a768	0.048011214
161	0x3c9c8feb	0.019111594
162	0xbd6f1443	-0.058368932
163	0xbd931cd9	-0.07183237
164	0x3d923c20	0.07140374
165	0x3cd2bd6e	0.025725093
166	0xbcfd1c1f	-0.030897198
167	0xbd5fade1	-0.054609183
168	0x3d1c1639	0.03810713
169	0x3d218b07	0.039439227
170	0x3db1c070	0.08679283
171	0x3d6027fa	0.054725625
172	0x3d956dc2	0.07296325
173	0xbd03c53e	-0.032170527
174	0xbd265a4d	-0.04061346
175	0x3dd4888c	0.10377607
176	0x3dabf74e	0.08396779
177	0x3d944ee3	0.07241609
178	0x3bbfec75	0.0058570453
179	0x3cad4988	0.021153226
180	0xbd817317	-0.0632078
181	0xbd456ed7	-0.04820141
182	0x3d683250	0.056688607
183	0xbc4f42e0	-0.012650222
184	0x3cfa21d1	0.030533703
185	0x3c869b73	0.016431546
186	0x3cf69804	0.030101784
187	0x3dc1240f	0.09430706
188	0xbd7e93fc	-0.062152848
189	0xbcbe23ae	-0.023210373
190	0x3d0c7d41	0.03429914
191	0xbcbf382d	-0.023342216
192	0x3d0a7c30	0.03380984
193	0x3d386526	0.045018338
194	0x3b381be7	0.0028092803
195	0xbd4e4730	-0.05036086
196	0xbcad6f55	-0.021171251
197	0x3c387400	0.011258125
198	0xbd46b4c3	-0.04851223
199	0xbd930870	-0.07179344
200	0xbd737ebe	-0.059447043
201	0xbd29ec04	-0.041484848
202	0xbbcdae05	-0.0062768483
203	0x3d2bb6b0	0.04192227
204	0xbd994d49	-0.07485444
205	0xbce86e1e	-0.02837282
206	0xbd2eb88a	-0.04265646
207	0x3d20325d	0.03911053
208	0xbd15a646	-0.036535524
209	0xbc8b08ac	-0.016971909
210	0xbd2d2d24	-0.042279378
211	0x3cba47e4	0.022739358
212	0xbd80d58b	-0.0629073
213	0x3d00b0f0	0.03141874
214	0x3cefd601	0.02927685
215	0x3cbbf93f	0.022945998
216	0xbb11d1d6	-0.0022250316
217	0xbc3b5005	-0.011432652
218	0x3d9f53e5	0.077796735
219	0x3d0217f3	0.03176112
220	0x3dc493a1	0.095984705
221	0x3d2e106b	0.042496126
222	0xbcd16fa9	-0.025565939
223	0xbcbc6a33	-0.022999858
224	0x3d0b203d	0.03396629
225	0x3d891aef	0.0669459
226	0x3d47bc74	0.048763707
227	0x3d3f9262	0.04677046
228	0xbd257163	-0.040391337
229	0x3d2ebbee	0.042659692
230	0xbcea1225	-0.028573105
231	0xbd039ba7	-0.032130864
232	0xbd5f08ee	-0.054451875
233	0x3d44739a	0.04796181
234	0xbbf0174b	-0.0073269955
235	0xbd417623	-0.047231805
236	0xbd382cef	-0.044964727
237	0xbb89fdf3	-0.0042111813
238	0x3b898ee2	0.004197941
239	0x3c776389	0.015099415
240	0x3ddbb705	0.107282676
241	0xbb1a4ba4	-0.002354362
242	0x3ca234dd	0.019800598
243	0x3ca2b528	0.019861773
244	0x3b9b48eb	0.004738917
245	0x3bec277a	0.0072068544
246	0xbc3e4242	-0.011612477
247	0x3e1288e3	0.1431003
248	0x3cedd7d6	0.029033583
249	0x3e08dcdb	0.133655
250	0x3dc7706b	0.09738239
251	0x3e035f81	0.128294
252	0xbd131f72	-0.03591866
253	0xbd174bfe	-0.036937706
254	0x3bc6bd6c	0.0060650613
255	0x3d374dc8	0.044751912

decoder.2.bias f4 [16]
0	0x3adfdc1a	0.0017079145
1	0xbcfee40e	-0.031114604
2	0xbdaee56d	-0.08539853
3	0x3cec5f71	0.028854104
4	0x3b7abe09	0.0038260242
5	0x3d7ef0d8	0.062241405
6	0x3ceecb1e	0.029149588
7	0x3cf82721	0.030292096
8	0x3db8c23e	0.09021424
9	0xbdc3a5e8	-0.095531285
10	0x3dbf89ee	0.0935248
11	0xbd003e0b	-0.03130917
12	0x3d8df9b7	0.06932395
13	0x3d66f58d	0.05638652
14	0x3d338716	0.04383
15	0xbc82f7f6	-0.015987378

decoder.4.weight f4 [16, 1, 3, 3]
0	0x3e70ecae	0.23527786
1	0x3e821895	0.2540938
2	0x3deeb0b2	0.11654796
3	0x3dbe2c5e	0.09285806
4	0xbe35ac37	-0.17741476
5	0x3d601984	0.054711834
6	0xbd0f3c0b	-0.03496937
7	0xbe7e2000	-0.24816895
8	0xbe9e3bec	-0.30905092
9	0x3c340321	0.010987074
10	0x3eae872b	0.340875
11	0x3e158a14	0.14603454
12	0xbdc5fb2b	-0.09667047
13	0xbe60ec36	-0.21965107
14	0xbe88459e	-0.26615614
15	0xbe9f75a2	-0.31144434
16	0x3d99070e	0.07472049
17	0x3e9fd313	0.31215724
18	0x3e9eb0f3	0.30994377
19	0x3de79bff	0.11309051
20	0xbe98079d	-0.29693308
21	0xbd668753	-0.0562814
22	0x3e3d1426	0.18464717
23	0xbd7ed98c	-0.062219188
24	0x3e4e7668	0.20162356
25	0x3da6a4b1	0.08136881
26	0xbe1758b8	-0.14779937
27	0x3e8b480e	0.2720341
28	0x3e477174	0.19476873
29	0x3dd3c59b	0.103404246
30	0x3eba5a6b	0.36397108
31	0x3d8362f3	0.064153574
32	0xbe3e7a45	-0.1860133
33	0xbc42ad25	-0.011882101
34	0x3df3a698	0.118970096
35	0x3d453e54	0.048155144
36	0xbe10e53b	-0.14149944
37	0xbe846689	-0.25859478
38	0x3defb167	0.11703759
39	0x3e701677	0.2344607
40	0xbdf5a684	-0.11994651
41	0x3d0e6117	0.03476056
42	0xbe4ee522	-0.20204595
43	0x3e62bf16	0.22143206
44	0x3d08b82f	0.033378776
45	0xbe27444c	-0.16334647
46	0x3ce48546	0.027895581
47	0xbe696d79	-0.22795667
48	0xbc66ec5a	-0.014094437
49	0xbe8c7b3b	-0.27437767
50	0x3dd8ab11	0.10579503
51	0xbe8280ab	-0.2548879
52	0xbe9889bd	-0.29792586
53	0x3ceacc67	0.02866192
54	0xbe26576c	-0.16244286
55	0x3c9b6881	0.01897073
56	0x3c9e5793	0.019328868
57	0xbe2cedf1	-0.16887642
58	0x3ea2fcaf	0.31833407
59	0xbe7a4081	-0.24438669
60	0x3e2777c2	0.16354278
61	0xbe83383c	-0.2562884
62	0x3e6d1854	0.23153812
63	0xbe9edbf7	-0.31027195
64	0x3e2fff92	0.17187336
65	0x3e77d2da	0.24201527
66	0xbe578309	-0.2104608
67	0xbd5f13be	-0.054462187
68	0xbdcbe19e	-0.099551424
69	0x3e92c5b6	0.28666466
70	0x3db0e7b6	0.08637945
71	0x3e96e52d	0.29471722
72	0x3d4d8c5d	0.05018269
73	0x3e9f6e61	0.311389
74	0xbe2a9975	-0.16660102
75	0xbe8d959b	-0.27653202
76	0x3ec1c1b2	0.3784309
77	0x3e873a9e	0.2641191
78	0xbdcaeea9	-0.09908802
79	0x3c105a52	0.008810597
80	0x3d078b7a	0.033092
81	0x3e988d7d	0.29795447
82	0xbe707f65	-0.23486097
83	0x3e740c65	0.23832853
84	0xbe5917e5	-0.21200521
85	0x3ea227e7	0.31671068
86	0xbe91ed6e	-0.28501457
87	0xbe3e3512	-0.18574932
88	0x3d25d488	0.04048589
89	0xbcc95c78	-0.024580225
90	0x3d9bdbc1	0.07610274
91	0xbd92bcd5	-0.07164923
92	0xbcd3684e	-0.025806572
93	0x3e253043	0.16131692
94	0x3e9094f3	0.2823864
95	0xbe1aeba7	-0.15128957
96	0x3e5f6a58	0.2181791
97	0x3ea26b17	0.31722328
98	0xbda3cd23	-0.07998111
99	0x3e539cbc	0.20665258
100	0xbe1156ed	-0.14193316
101	0x3e6accb7	0.22929655
102	0x3e633488	0.22188008
103	0x3b843f09	0.0040358347
104	0x3e381e1a	0.17980233
105	0x3e026c52	0.12736633
106	0xbd1f1007	-0.038833644
107	0x3d92f65d	0.07175896
108	0x3e29fbdd	0.16599984
109	0x3d69ced9	0.05708203
110	0xbe3512a3	-0.1768289
111	0xbe85daf2	-0.26143605
112	0x3ea2fc35	0.31833044
113	0x3bda0046	0.0066528646
114	0x3ea4eacf	0.32210395
115	0x3e4f9463	0.20271449
116	0x3e4a7b98	0.1977371
117	0x3eac82a5	0.33693424
118	0x3e6b6801	0.22988893
119	0xbca52f9b	-0.020164302
120	0xbe063c69	-0.13108982
121	0x3e2901a9	0.1650454
122	0xbe8c6d94	-0.2742735
123	0x3e5da498	0.21644819
124	0xbe8feceb	-0.28110442
125	0xbe12a2b7	-0.14319883
126	0xbe9a934a	-0.30190498
127	0x3dd3777b	0.103255235
128	0xbd6ceda8	-0.057843834
129	0x3e7376c7	0.23775779
130	0xbd0e9b65	-0.034816165
131	0xbd8bb179	-0.068209596
132	0xbe77c21a	-0.24195138
133	0x3e0d19df	0.137794
134	0xbdc6e1d7	-0.09711044
135	0xbe487c31	-0.19578625
136	0x3e912e80	0.2835579
137	0x3e98bc89	0.2983134
138	0xbe6f0b0b	-0.23344056
139	0xbc602955	-0.013681729
140	0x3e290e64	0.16509396
141	0x3e711dd8	0.2354654
142	0x3e85a199	0.26099852
143	0x3db05b40	0.086111546
